TrainData.pth (torch, 38876 bytes, 6 tensors)

l1.weight f4 [8, 374]
-0.08388489 0.728924 0.7920449 -1.8765467 1.149378 2.7274969 1.6043358 3.2439444
-1.8778476 0.20075275 0.108245075 0.8837747 2.315257 2.6322467 -3.1719246 -0.074896656
1.2891228 -0.7058666 1.0913658 0.13767567 0.18671824 -1.7102653 0.77733195 0.67765766
2.3366826 -1.2631518 2.3304596 -0.9763922 -0.72527564 1.5275719 -0.9491242 0.7068521
2.2257025 -0.07302147 -1.2854607 6.064632 1.5933334 -0.035562847 1.1033491 4.821206
-1.284468 -0.41675454 4.684505 0.40343022 1.1201708 0.7454487 -0.3706475 2.6389046
0.1893584 3.2218802 2.3600242 1.9149873 0.839399 -0.05633085 -0.89295745 5.6062536
-0.17472832 -1.2882102 1.0168272 1.9660028 -0.26287606 3.6071756 -2.443086 0.5655284
-1.2792362 0.3339 2.9839818 1.2707914 0.009532954 0.93274266 1.1010392 -0.9499943
0.6579074 2.1233552 0.2731012 -0.33423746 -1.2860584 0.056511536 -0.100724146 -0.9919371
2.6896195 -1.2187474 0.40909958 -0.5518972 1.371655 0.42525092 -0.13072482 2.0569506
-0.9449166 2.6933208 -0.77399427 -0.3803813 -1.1483967 0.8406187 1.704903 4.1812935
-0.12151009 -0.5155585 1.0735883 0.6649939 0.8571493 0.5609117 2.6236696 -0.74546945
-0.6048699 0.40948492 0.15148182 3.700016 0.6827414 0.19936556 0.04972811 -0.010011453
0.4016444 2.7324681 1.7451054 0.068578914 4.5511436 -0.9170176 0.09860754 -0.04234852
2.8006651 0.4049033 -0.55680096 2.621856 4.937373 -0.8074951 -1.0576725 -1.0066007
3.7147045 -1.2832836 -0.626944 2.3634439 3.8875325 3.3428473 1.037587 -0.45956907
0.38225362 -0.45920977 -0.68594944 0.81363994 -0.10232488 0.99503 -3.0043464 0.6786236
0.08128964 -0.58911026 -0.1743626 -0.37716395 0.5501102 2.937336 0.7870772 -0.8326661
0.7822904 0.98021644 1.0505929 2.3539252 1.8048847 3.665507 2.153567 4.3928204
-0.6142414 -0.32487884 -0.89140487 1.5184355 -0.50701505 -0.61687165 -0.5703505 1.5283872
1.5503112 -0.5700591 0.7971884 -0.87458336 -1.0303355 2.5330267 3.2652686 2.235885
1.7568191 2.7194405 0.804186 3.2212055 1.1692463 -1.2330697 -1.0223908 -0.26185524
0.88746595 0.78708166 1.315294 1.5428482 1.6905895 -0.87811923 0.27024892 0.26481956
3.7580492 1.4888165 1.4599911 3.5710435 1.5906516 -0.113278344 2.5426636 4.062588
1.7150096 0.11155956 1.6267798 -1.2845021 0.94970924 -0.70108294 -0.5415001 -0.98253363
-1.5668159 -1.2583952 1.2391402 -0.6096181 0.1398652 0.5454756 2.7572963 -1.5776211
3.4351904 -0.36412793 0.7616192 1.6879276 -0.39750254 4.019395 0.47050172 -0.22851798
-1.2921582 3.0342963 -0.5201165 -0.09996291 0.84100163 -1.0696803 2.1355722 5.1607103
0.08243941 2.0743277 4.1966715 0.06825776 3.3433518 3.6974595 0.017443733 -0.14017874
1.1196631 0.6651546 -0.95686555 3.3690815 1.3742187 0.93301547 2.0018408 -0.5994173
2.049497 0.86399436 0.77237535 0.04432412 5.975999 3.6779835 1.8956114 -0.5684484
00000000: d7cb abbd c39a 3a3f 74c3 4a3f af32 f0bf
00000010: d11e 933f 4f8f 2e40 e05a cd3f c99c 4f40
00000020: 4f5d f0bf 2192 4d3e 98af dd3d 0f3f 623f
00000030: 2c2d 1440 bb76 2840 d000 4bc0 6b63 99bd
00000040: fa01 a53f acb3 34bf e0b1 8b3f dafa 0c3e
00000050: 1133 3f3e f9e9 dabf 3aff 463f f97a 2d3f
00000060: 358c 1540 f5ae a1bf 4026 1540 d7f4 79bf
00000070: aaab 39bf 7a87 c33f cef9 72bf 42f4 343f
00000080: e971 0e40 488c 95bd fa89 a4bf 7711 c240
00000090: 59f2 cb3f 59aa 11bd 8b3a 8d3f 5247 9a40
000000a0: 7369 a4bf da60 d5be 77e7 9540 688e ce3e
000000b0: c261 8f3f bad5 3e3f 82c5 bdbe d0e3 2840
000000c0: 2be7 413e 4933 4e40 a30a 1740 4e1e f53f
000000d0: dae2 563f 2dbb 66bd dc98 64bf 6e66 b340
000000e0: fbeb 32be 12e4 a4bf 6527 823f fba5 fb3f
000000f0: b197 86be f7db 6640 855b 1cc0 78c6 103f
00000100: 03be a3bf f1f4 aa3e 8ff9 3e40 4ba9 a23f
00000110: 1b30 1c3c 39c8 6e3f daee 8c3f d432 73bf
00000120: 9f6c 283f 0de5 0740 ecd3 8b3e 2c21 abbe
00000130: 909d a4bf a478 673d 7648 cebd 97ef 7dbf
00000140: ba22 2c40 eaff 9bbf 8075 d13e 2349 0dbf
00000150: 6492 af3f 7dba d93e badc 05be 14a5 0340
00000160: 0ee6 71bf 5e5f 2c40 7d24 46bf 56c1 c2be
00000170: aafe 92bf ca32 573f 433a da3f 28cd 8540
00000180: 48da f8bd a4fb 03bf 576b 893f 0a3d 2a3f
00000190: 236e 5b3f e997 0f3f 34ea 2740 16d7 3ebf
000001a0: c1d8 1abf 02a8 d13e 0d1e 1b3e 10cd 6c40
000001b0: 24c8 2e3f 7c26 4c3e b4af 4b3d 1407 24bc
000001c0: 56a4 cd3e c2e0 2e40 9d5f df3f 1a73 8c3d
000001d0: f8a2 9140 aac1 6abf c0f2 c93d a475 2dbd
000001e0: 193e 3340 7c4f cf3e 828a 0ebf 7dcc 2740
000001f0: f6fe 9d40 00b8 4ebf d061 87bf 4bd8 80bf
00000200: b8bd 6d40 a342 a4bf 677f 20bf aa42 1740
00000210: 55cd 7840 36f1 5540 a7cf 843f a34c ebbe
00000220: bfb6 c33e 8b1d ebbe 629a 2fbf b54a 503f
00000230: b58f d1bd 49ba 7e3f 3647 40c0 47ba 2d3f
00000240: 2f7b a63d eecf 16bf 1c8c 32be a21b c1be
00000250: 06d4 0c3f 50fd 3b40 e47d 493f 9b29 55bf
00000260: 2f44 483f 77ef 7a3f d479 863f b6a6 1640
00000270: 7606 e73f ab97 6a40 0bd4 0940 fc91 8c40
00000280: ed3e 1dbf 8556 a6be 1c33 64bf 185c c23f
00000290: bdcb 01bf 4deb 1dbf 7e02 12bf 31a2 c33f
000002a0: 9970 c63f 65ef 11bf 8a14 4c3f b2e4 5fbf
000002b0: 09e2 83bf 1c1d 2240 29fa 5040 bd18 0f40
000002c0: 73df e03f 500b 2e40 22df 4d3f 3b28 4e40
000002d0: dda9 953f 3ad5 9dbf b4dd 82bf e411 86be
000002e0: f830 633f 2f7e 493f 8e5b a83f 0d7c c53f
000002f0: 3d65 d83f 6ccc 60bf 115e 8a3e 6e96 873e
00000300: e183 7040 8a91 be3f fde0 ba3f fa8b 6440
00000310: 799a cb3f 7afe e7bd 00bb 2240 b900 8240
00000320: 6f85 db3f 5779 e43d 523a d03f 916a a4bf
00000330: 2520 733f 2c7a 33bf c09f 0abf 5387 7bbf
00000340: 6c8d c8bf 1813 a1bf 259c 9e3f ef0f 1cbf
00000350: d338 0f3e 4aa4 0b3f 8b77 3040 7def c9bf
00000360: 29da 5b40 fa6e babe 7af9 423f 030e d83f
00000370: 7485 cbbe e29e 8040 9ae5 f03e 9e00 6abe
00000380: 7165 a5bf e931 4240 5b26 05bf 5bb9 ccbd
00000390: e24b 573f 49eb 88bf 37ad 0840 8a24 a540
000003a0: fed5 a83d c9c1 0440 224b 8640 b9ca 8b3d
000003b0: 7af9 5540 2da3 6c40 29e6 8e3c 048b 0fbe
000003c0: 1f51 8f3f 9247 2a3f 24f5 74bf 089f 5740
000003d0: 66e6 af3f 1ada 6e3f 291e 0040 6a73 19bf
000003e0: f52a 0340 bc2e 5d3f 64ba 453f 358d 353d
000003f0: 623b bf40 1564 6b40 65a3 f23f d685 11bf

l1.bias f4 [8]
0.4376548 0.60750157 0.50192 1.4198941 0.9805267 1.1069666 1.1921355 1.1129706
00000000: 4a14 e03e 3985 1b3f d47d 003f 17bf b53f
00000010: cc03 7b3f 15b1 8d3f e597 983f d275 8e3f

l2.weight f4 [8, 8]
1.6090393 1.8922049 -4.3244047 1.271198 0.24712925 -1.1485658 -1.2196807 2.6430686
0.45110515 0.92006814 3.2148712 -0.13133478 -0.7019526 -2.7862086 4.5632205 -1.238409
-0.63830936 0.47338358 -0.9345929 3.2745523 -3.2455602 0.70646536 -0.81587696 -1.056427
0.1545097 0.07315037 0.10309577 -0.25868902 -0.28356567 -0.29924288 -0.116524994 -0.28153402
2.1355932 0.89662033 3.4429274 -1.4198809 -2.2192967 2.4773593 -3.204752 3.0772176
-0.5436098 2.5213702 -0.14853314 0.53320277 0.34890908 1.0920031 -2.5518486 -2.7508042
-3.737732 -0.75554115 -2.0361693 -0.10942851 -1.4032413 3.2756622 0.8566306 4.098081
0.15157202 -4.369256 -1.6274536 1.627245 5.1888723 -0.44625273 0.36000007 -1.9163557
00000000: 00f5 cd3f c533 f23f 8661 8ac0 9eb6 a23f
00000010: 730f 7d3e 3404 93bf 7f1e 9cbf 0928 2940
00000020: 41f7 e63e 9689 6b3f 73c0 4d40 a07c 06be
00000030: 2ab3 33bf 3e51 32c0 e705 9240 3084 9ebf
00000040: 3e68 23bf 555f f23e 7b41 6fbf 4492 5140
00000050: 42b7 4fc0 eada 343f 50dd 50bf 0039 87bf
00000060: ca37 1e3e dccf 953d e023 d33d e372 84be
00000070: 852f 91be 5d36 99be a8a4 eebd 3a25 90be
00000080: 8fad 0840 e988 653f ec58 5c40 a8be b5bf
00000090: f508 0ec0 0e8d 1e40 a81a 4dc0 22f1 4440
000000a0: 032a 0bbf 215e 2140 1219 18be fa7f 083f
000000b0: 36a4 b23e c2c6 8b3f 7d51 23c0 2d0d 30c0
000000c0: 0037 6fc0 256b 41bf 9950 02c0 0e1c e0bd
000000d0: 699d b3bf 73a4 5140 254c 5b3f 7b23 8340
000000e0: b235 1b3e f2d0 8bc0 6650 d0bf 9049 d03f
000000f0: 3e0b a640 3d7b e4be ee51 b83e 254b f5bf

l2.bias f4 [8]
-0.35169077 -1.0631595 1.4539115 -0.23396373 -0.7444462 -0.012811727 0.27486816 0.6646688
00000000: d010 b4be 9c15 88bf c619 ba3f 3094 6fbe
00000010: 0794 3ebf 47e8 51bc 85bb 8c3e bc27 2a3f

l3.weight f4 [305, 8]
0.87800586 -3.8184083 -5.467827 -0.20449415 -4.7169604 -7.389909 -2.790355 -0.17298992
-0.9719915 -5.0343065 -0.44381905 0.1990641 -0.8782493 -6.722625 -5.92095 0.116907485
0.64752614 -3.5016112 -0.20045704 -0.18222742 -5.642724 -8.777251 -5.002848 -1.9047513
-2.173116 -0.7381119 0.9921621 0.23764941 -2.2468562 -3.2691326 -5.7084985 -6.770571
-2.4070811 -7.9681597 -1.9536225 -0.14888395 -1.5214598 -5.333107 -0.54336536 -6.1483703
-1.0527879 -0.3980502 0.39660287 0.34274366 -4.527471 -7.4474463 -3.9056065 -7.39005
-8.927937 -1.518745 -1.9603524 -0.029491335 -5.740226 -5.572301 -2.3490586 1.1156148
-1.0377119 -1.9729019 -1.1065558 -0.2414721 -10.008321 -0.9071296 -1.4645193 -4.0536003
-1.8928794 -1.6425081 -0.20049584 0.10197249 -5.902217 -2.0607812 -1.5767969 -7.301556
-5.0854425 -0.3801045 1.0908529 -0.0868215 -8.319695 -6.092013 -3.8458433 -5.369167
-5.267097 -2.5290086 -0.028585814 0.06500912 -3.706429 -2.0703952 -0.78414154 -7.1861134
-3.5494258 -9.744843 -0.25649536 0.23666814 -1.4668353 -0.94284815 -1.610124 -7.155176
-8.007432 -7.1123714 -6.197812 -0.007429093 -0.36809653 -1.0803292 -0.47416103 -0.5374944
-6.4842896 -1.1885923 -5.2464027 -0.09047398 0.64939255 -6.5741205 -7.8348217 0.3013459
-3.2326927 -3.9572363 -4.5715165 -0.19430746 -6.970855 1.5820541 -0.6715259 -3.3463354
-1.2299546 -8.123178 -4.6441035 0.20732513 -1.1918173 -4.7071085 -3.0060358 0.16093318
-3.6649215 -1.2501448 -2.5971448 0.07162005 -5.231608 -0.33268237 -0.101375386 -6.258861
-6.028771 -2.357598 -4.4620523 0.14772472 -2.8353887 2.0241022 -4.9453506 -1.0556074
-9.792739 -2.562103 -0.28283685 0.12859362 0.9480363 -4.9178166 -3.8125515 -4.6109695
-2.0816042 -7.9212236 -1.4829993 -0.0675616 -0.95068514 -2.2942767 -2.835504 -0.45337337
-2.2589326 -7.8900576 0.9516609 -0.18506655 -3.2948472 -0.27738872 -4.229772 -3.6102982
-1.1904469 -6.315481 0.793415 0.21594188 -4.4034743 -1.7904028 -2.9326673 -8.798621
-0.38170415 -3.7305372 -5.486048 0.33669403 -0.3675603 -12.310444 -3.4518747 -0.27348626
-1.2383758 -2.6609676 0.1983296 0.19728461 -3.5798461 -7.3160133 -1.8413664 -6.5846267
-1.7293074 -2.7061198 -0.48264775 0.2511588 -4.089365 -0.51949596 -2.2683208 -6.590664
-5.809926 -4.1771207 -6.987698 -0.2566479 0.22300579 -0.9628509 -4.5746183 0.117486894
-7.995627 -4.036912 -7.7765174 0.1984326 -0.52745205 0.80382687 -1.0229396 -6.193115
0.46324298 -6.0945563 -3.357394 -0.17090677 -0.10120166 -0.46588254 -7.821726 -7.926919
-0.4196858 -5.561565 -0.47614124 0.16107991 -6.0194044 -1.2874805 -3.4610436 -2.7067504
-0.16379064 -7.321736 -1.3540351 -0.044288754 -2.8529742 -4.2662034 -4.691412 -0.15911613
-2.2770875 -5.955961 0.27104837 0.033916295 -7.2889647 0.28148168 -1.8964028 -8.986318
-0.49927494 -2.4146776 -1.2279587 0.2502177 -1.3601096 -11.921781 -2.6746886 -4.8341784
00000000: fec4 603f cd60 74c0 70f8 aec0 ea66 51be
00000010: 57f1 96c0 227a ecc0 2d95 32c0 4524 31be
00000020: 6fd4 78bf 0a19 a1c0 403c e3be 76d7 4b3e
00000030: f2d4 60bf be1f d7c0 6c78 bdc0 316d ef3d
00000040: 46c4 253f 661a 60c0 9c44 4dbe d399 3abe
00000050: 3291 b4c0 9f6f 0cc1 5517 a0c0 e4ce f3bf
00000060: 5514 0bc0 e7f4 3cbf 56fe 7d3f 5e5a 733e
00000070: 7ecc 0fc0 7839 51c0 05ac b6c0 85a8 d8c0
00000080: 9e0d 1ac0 2afb fec0 4d10 fabf 0975 18be
00000090: 32bf c2bf d0a8 aac0 fe19 0bbf 73bf c4c0
000000a0: c1c1 86bf 3ccd cbbe 880f cb3e 197c af3e
000000b0: 0be1 90c0 7b51 eec0 75f5 79c0 4a7b ecc0
000000c0: d4d8 0ec1 3c66 c2bf d4ec fabf d097 f1bc
000000d0: eeaf b7c0 4a50 b2c0 fa56 16c0 77cc 8e3f
000000e0: bed3 84bf 0d88 fcbf 9fa3 8dbf 7644 77be
000000f0: 1522 20c1 a539 68bf 5e75 bbbf 18b7 81c0
00000100: df49 f2bf b53d d2bf c84e 4dbe f4d6 d03d
00000110: f6de bcc0 d7e3 03c0 7bd4 c9bf 59a6 e9c0
00000120: f2bb a2c0 0f9d c2be 11a1 8b3f 78cf b1bd
00000130: 791d 05c1 c5f1 c2c0 4c22 76c0 37d0 abc0
00000140: 0f8c a8c0 47db 21c0 cc2c eabc 8023 853d
00000150: 2236 6dc0 5b81 04c0 80bd 48bf a4f4 e5c0
00000160: cb29 63c0 e0ea 1bc1 5c53 83be 2259 723e
00000170: 42c1 bbbf 7f5e 71bf 8b18 cebf 34f7 e4c0
00000180: 711e 00c1 8c98 e3c0 7a54 c6c0 c06f f3bb
00000190: 2677 bcbe 3a48 8abf 3cc5 f2be 3c99 09bf
000001a0: 4d7f cfc0 cb23 98bf 88e2 a7c0 6c4a b9bd
000001b0: 973e 263f 325f d2c0 dcb6 fac0 034a 9a3e
000001c0: 70e4 4ec0 5c43 7dc0 dd49 92c0 89f8 46be
000001d0: 3f11 dfc0 c080 ca3f 1fe9 2bbf 5c2a 56c0
000001e0: 276f 9dbf 89f8 01c1 7f9c 94c0 0a4d 543e
000001f0: 788d 98bf a2a0 96c0 e462 40c0 abcb 243e
00000200: 138e 6ac0 bf04 a0bf 9f37 26c0 88ad 923d
00000210: 5569 a7c0 5855 aabe e69d cfbd 9748 c8c0
00000220: b1eb c0c0 e3e2 16c0 22c9 8ec0 2645 173e
00000230: 0277 35c0 e48a 0140 5040 9ec0 251e 87bf
00000240: 0faf 1cc1 7ff9 23c0 fecf 90be 0cae 033e
00000250: 82b2 723f c15e 9dc0 d800 74c0 108d 93c0
00000260: 0139 05c0 aa7a fdc0 ecd2 bdbf bc5d 8abd
00000270: 1a60 73bf 6ed5 12c0 e678 35c0 8e20 e8be
00000280: 5a92 10c0 5a7b fcc0 0ca0 733f 1682 3dbe
00000290: c7de 52c0 e505 8ebe 4b5a 87c0 200f 67c0
000002a0: 9060 98bf 6c18 cac0 3f1d 4b3f de1f 5d3e
000002b0: 43e9 8cc0 eb2b e5bf d2b0 3bc0 27c7 0cc1
000002c0: ba6e c3be 1fc1 6ec0 b58d afc0 2963 ac3e
000002d0: dd30 bcbe 94f7 44c1 84eb 5cc0 6406 8cbe
000002e0: 1983 9ebf 4b4d 2ac0 ea16 4b3e fa04 4a3e
000002f0: 331c 65c0 c81c eac0 e5b1 ebbf 43b5 d2c0
00000300: f259 ddbf 1131 2dc0 9b1d f7be e397 803e
00000310: 14dc 82c0 b0fd 04bf 2b2c 11c0 b8e6 d2c0
00000320: eaea b9c0 f9aa 85c0 399b dfc0 5b67 83be
00000330: a15b 643e 667d 76bf 4663 92c0 f89c f03d
00000340: 2ddc ffc0 622e 81c0 3bd9 f8c0 ea31 4b3e
00000350: 1907 07bf 99c7 4d3f afef 82bf 002e c6c0
00000360: 2f2e ed3e 9b06 c3c0 8bdf 56c0 2f02 2fbe
00000370: d142 cfbd 2888 eebe 944b fac0 52a9 fdc0
00000380: 0fe1 d6be 57f8 b1c0 c9c8 f3be 22f2 243e
00000390: f69e c0c0 29cc a4bf bd81 5dc0 663b 2dc0
000003a0: bcb8 27be a94b eac0 0651 adbf 2068 35bd
000003b0: 2197 36c0 bd84 88c0 0c20 96c0 57ef 22be
000003c0: cdbb 11c0 3c97 bec0 dac6 8a3e d0eb 0a3d
000003d0: 333f e9c0 5e1e 903e 54bd f2bf f5c7 0fc1
000003e0: f7a0 ffbe 148a 1ac0 c02d 9dbf 891c 803e
000003f0: 1218 aebf 9dbf 3ec1 192e 2bc0 97b1 9ac0

l3.bias f4 [305]
-8.3493805 -4.9290237 -5.300498 -3.67517 -7.300581 -4.135018 -8.295375 -7.0523934
-6.2480435 -6.641738 -7.636641 -6.4585524 -5.918809 -2.8547597 -4.039186 -5.9172564
-5.8507566 -4.216594 -4.195769 -7.401639 -5.159261 -4.8298254 -3.452647 -6.149306
-6.4973845 -6.5042143 -7.7107415 -7.419347 -5.929339 -4.8145065 -4.5706677 -3.934846
-4.8889217 -3.899948 -4.4709735 -4.0654807 -7.320412 -3.7321067 -3.280665 -2.598976
-3.3157527 -7.1806617 -7.523053 -3.4027252 -2.9760766 -3.820574 -3.9810715 -6.158382
-2.7364047 -3.073847 -2.2657244 -3.336406 -3.0228593 -6.4555116 -3.9406166 -3.0551565
-6.476764 -7.9260373 -3.902934 -5.39624 -0.23196346 -1.6289995 -2.2520785 -4.5722027
-5.1826906 -5.256831 -3.3199525 0.2144341 -2.6877172 -0.30176204 -3.893214 -10.446381
-5.1325397 -3.4781601 -4.3554897 -0.5652643 -0.5415356 -0.14155103 -4.2317867 -2.7169414
-3.5609488 -0.33963904 -3.791756 -4.191545 -4.547838 -3.816608 -3.6812649 -5.838743
-5.3150516 -3.5862124 -4.0805683 -3.4208682 -4.0432034 -3.5222852 -4.948809 -6.4332533
-2.214215 -3.268495 -3.2998393 -6.738764 -2.518919 -4.659731 -2.9313757 -4.7045555
-5.2753043 -5.74727 -6.2243176 -4.6071506 -3.292405 -5.996928 -4.2582636 -6.676669
-5.006524 -8.94645 -1.5523046 -5.6807942 -5.1008463 -5.5661545 -2.590071 -4.8012004
-3.7731667 -6.07901 -0.35321474 -4.3963323 -0.35493398 -5.1711793 -2.5153506 -1.510537
-5.9240193 -5.3078914 -2.9975362 -5.67423 -4.44744 -6.5932302 -4.309264 -3.6542656
-6.372923 -5.2737584 -3.2201984 -1.2943805 -4.9104466 -5.761299 -0.12214235 0.46135983
-4.6277494 -5.9275703 -4.296747 -4.5643005 -3.8074026 -3.1994958 -4.125129 -6.9704194
-3.3645532 -6.4475465 -4.293884 -6.3551774 -5.558252 -4.360396 -5.7472787 -4.094264
-4.0905557 -4.8725615 -2.9496248 -7.129996 -3.543668 -6.5676317 -5.774039 -4.338388
-5.7458405 -5.080807 -4.9042573 -5.150867 -3.4284153 -4.9892445 -3.9741955 -5.6119537
-7.526567 -2.7992857 -3.594855 -4.970899 -2.9515061 -4.115339 -5.6447964 -2.931549
-6.4538283 -7.709165 -6.0937266 -4.584012 -3.4046948 -3.7863262 -5.487379 -5.502963
-5.3160524 -6.473767 -3.1439784 -5.6125927 -4.0605326 -4.2321005 -3.3254142 -4.1747274
-6.5538163 -5.2970967 -6.531212 -6.6475906 -4.2800913 -3.608556 -1.4615554 -6.3157616
-3.9138505 -6.231289 -5.301399 -5.491424 -4.742629 -5.287977 -5.4670568 -4.7985706
-5.2092423 -3.8480563 -5.8196077 -5.1160183 -6.974306 -3.8570507 -4.476598 -6.0201335
-6.3881025 -3.8271866 -5.3518724 -4.616099 -3.461421 -4.469509 -3.3416111 -4.38386
-3.5686405 -4.530811 -5.4236135 -4.7424035 -5.7130775 -5.657589 -3.8505464 -5.1459885
-4.482299 -7.2412314 -5.9140954 -5.785362 -3.6605375 -3.2481089 -6.138117 -4.1256638
-4.0774665 -5.781186 -5.784118 -3.9239664 -3.4497597 -2.43615 -5.9437995 -2.6131947
00000000: 1097 05c1 90ba 9dc0 ae9d a9c0 fc35 6bc0
00000010: 5c9e e9c0 1152 84c0 dbb9 04c1 35ad e1c0
00000020: f9ef c7c0 1e89 d4c0 5d5f f4c0 76ac cec0
00000030: e266 bdc0 62b4 36c0 0341 81c0 2a5a bdc0
00000040: 6639 bbc0 57ee 86c0 bd43 86c0 3ada ecc0
00000050: ab18 a5c0 ee8d 9ac0 2bf8 5cc0 1dc7 c4c0
00000060: 93ea cfc0 8622 d0c0 65be f6c0 4a6b edc0
00000070: 25bd bdc0 7010 9ac0 e942 92c0 84d4 7bc0
00000080: 0c72 9cc0 bf98 79c0 3712 8fc0 6b18 82c0
00000090: d140 eac0 d6da 6ec0 6af6 51c0 9f55 26c0
000000a0: 4b35 54c0 fbc7 e5c0 dabc f0c0 40c6 59c0
000000b0: 0a78 3ec0 4984 74c0 e0c9 7ec0 7711 c5c0
000000c0: 4121 2fc0 e9b9 44c0 a101 11c0 ad87 55c0
000000d0: 8776 41c0 8d93 cec0 1033 7cc0 af87 43c0
000000e0: a741 cfc0 19a2 fdc0 acc9 79c0 00ae acc0
000000f0: d487 6dbe 0e83 d0bf 0e22 10c0 7c4f 92c0
00000100: 9ad8 a5c0 f637 a8c0 1a7a 54c0 9d94 5b3e
00000110: 8f03 2cc0 8e80 9abe 6b2a 79c0 6024 27c1
00000120: c43d a4c0 2d9a 5ec0 2c60 8bc0 29b5 10bf
00000130: 14a2 0abf c1f2 10be cc6a 87c0 5ee2 2dc0
00000140: 96e6 63c0 2be5 adbe 21ac 72c0 2321 86c0
00000150: e487 91c0 4e43 74c0 d899 6bc0 fcd6 bac0
00000160: e714 aac0 8184 65c0 0494 82c0 81ef 5ac0
00000170: ec61 81c0 1f6d 61c0 a55c 9ec0 36dd cdc0
00000180: b3b5 0dc0 062f 51c0 9130 53c0 f4a3 d7c0
00000190: f835 21c0 841c 95c0 a99b 3bc0 b88b 96c0
000001a0: 4bcf a8c0 a3e9 b7c0 9c2d c7c0 c76d 93c0
000001b0: c3b6 52c0 d6e6 bfc0 b243 88c0 46a7 d5c0
000001c0: 7235 a0c0 a924 0fc1 ebb1 c6bf 11c9 b5c0
000001d0: 223a a3c0 f01d b2c0 b9c3 25c0 6fa3 99c0
000001e0: 907b 71c0 4087 c2c0 90d8 b4be c1ae 8cc0
000001f0: e8b9 b5be 4d7a a5c0 81fb 20c0 4759 c1bf
00000200: 9191 bdc0 3fda a9c0 a2d7 3fc0 4b93 b5c0
00000210: 6e51 8ec0 befb d2c0 7ee5 89c0 7ddf 69c0
00000220: fcee cbc0 a1c2 a8c0 bb17 4ec0 43ae a5bf
00000230: 6122 9dc0 905c b8c0 c525 fabd 5b37 ec3e
00000240: 8616 94c0 a8ae bdc0 f47e 89c0 c00e 92c0
00000250: 7cac 73c0 8ac4 4cc0 0f01 84c0 ad0d dfc0
00000260: d754 57c0 4d52 cec0 7f67 89c0 9d5d cbc0
00000270: 33dd b1c0 5d88 8bc0 b5e9 b7c0 3604 83c0
00000280: d5e5 82c0 06ec 9bc0 a7c6 3cc0 ed28 e4c0
00000290: 75cb 62c0 0a2a d2c0 edc4 b8c0 13d4 8ac0
000002a0: eddd b7c0 f995 a2c0 adef 9cc0 e7d3 a4c0
000002b0: 286b 5bc0 e4a7 9fc0 3859 7ec0 2095 b3c0
000002c0: a3d9 f0c0 7f27 33c0 1b12 66c0 9b11 9fc0
000002d0: 7ae5 3cc0 dbb0 83c0 2ca2 b4c0 809e 3bc0
000002e0: c385 cec0 7bb1 f6c0 cfff c2c0 3ab0 92c0
000002f0: 85e6 59c0 2b53 72c0 9c98 afc0 4618 b0c0
00000300: 1a1d aac0 1929 cfc0 f136 49c0 5c9a b3c0
00000310: e2ef 81c0 5e6d 87c0 96d3 54c0 5e97 85c0
00000320: ddb8 d1c0 d181 a9c0 b0ff d0c0 10b9 d4c0
00000330: 82f6 88c0 95f2 66c0 3f14 bbbf b81a cac0
00000340: 877c 7ac0 b866 c7c0 10a5 a9c0 bfb9 afc0
00000350: 9ec3 97c0 1c37 a9c0 21f2 aec0 e48d 99c0
00000360: 1db2 a6c0 8e46 76c0 3a3a bac0 6cb6 a3c0
00000370: 842d dfc0 ebd9 76c0 4a40 8fc0 efa4 c0c0
00000380: 566b ccc0 a0f0 74c0 8a42 abc0 15b7 93c0
00000390: ec87 5dc0 3806 8fc0 f5dc 55c0 9548 8cc0
000003a0: 9b64 64c0 67fc 90c0 3e8e adc0 c5c1 97c0
000003b0: 88d1 b6c0 f80a b5c0 5a6f 76c0 f0ab a4c0
000003c0: fe6e 8fc0 2bb8 e7c0 4540 bdc0 af21 b9c0
000003d0: 3f46 6ac0 04e1 4fc0 746b c4c0 7005 84c0
000003e0: 9b7a 82c0 7aff b8c0 7f17 b9c0 4422 7bc0
000003f0: ddc8 5cc0 e2e9 1bc0 9b33 bec0 953e 27c0
