TrainData.pth (torch, 38812 bytes, 6 tensors)

l1.weight f4 [8, 373]
00000000: cbca 2dbc 1e6b 88bf 5c5f 8bbf 19b5 313f
00000010: 18b4 d13f 756e e7bf 0494 53bf 99bc c2bf
00000020: cdc6 233f 6825 ecbe e788 14bf 0029 eabe
00000030: 3c52 81be 3f09 60bf 213e bebe 2c35 fabd
00000040: 99ff 85bf 639c f9be fb97 233f 090c 8bbe
00000050: 3358 8a3d 4629 ad40 9660 2f3f 0569 98be
00000060: 738c 65be b9d4 ac40 0133 4abe fe77 0140
00000070: 6c66 bf3f 93c2 6c3f ceed e1bd 2471 3bbf
00000080: eb07 4640 5db4 dabe c2bf bbbf 0385 e53f
00000090: 4be8 983f ccb8 e2be a78e 2ebf 0537 e5bf
000000a0: 7e23 b13f 5fc7 2cbf bbc1 44bf 8242 b8bf
000000b0: 7baf b3be 3d3c 953f 20d7 4940 fd2b cb3f
000000c0: fdef 3b3e 27ac 853f abbe a0bd 24f7 bbbf
000000d0: c55e 263f 7c39 cabe 3b93 7abe a49e 953f
000000e0: 883c 9d3f 8150 8a40 0af0 833f 42d7 3440
000000f0: 23f9 6240 0749 f73f ff42 2f3f 037e 8140
00000100: bd5a 983f 912e 9fbf fde0 b43f 8e92 e53f
00000110: 88b3 70bf 890a af3f c463 063f e2d0 8ebe
00000120: bf29 41be 2ba5 0140 dfc2 2ebf 37f5 aebf
00000130: fc63 583e 0e4b 38bf 12c0 d43e b520 c4bf
00000140: f6d5 3e40 e52c 8fbf e4d8 63be 83d7 43bf
00000150: e184 c53e 71cf 8dbe ee08 953f 80ce b23f
00000160: dcb6 3fbe c992 9abf 3980 5240 c644 563f
00000170: b191 793f 5422 1340 a02e 2140 d9a5 fe3f
00000180: 06cd 15bd 4b4c d4bf 4117 393f 96af f03e
00000190: 7eb6 d33e ac6b babf 3b24 7a40 fff6 17bf
000001a0: c9fc 7140 78f4 0fc0 24b8 b33f fff5 dfbf
000001b0: 0820 f83e d8ab 4240 25bf 73bf cdc9 c23e
000001c0: efe5 a93f 8602 7e3e 9a81 babf 90c6 cbbe
000001d0: 0d97 b0be 4e2b 88be dc68 bd3f 0dd7 92bf
000001e0: e1f8 3dbe 570d 683d 5820 41be 62d7 2340
000001f0: 27a1 9ebf 23b5 9fbe bd2d 99bf 3efc a43d
00000200: e7bb 9b40 110e 3abf 4581 7340 07b5 fabd
00000210: 4d5e bdbe 23ff 4b40 1c75 c73f 8c4b fe3f
00000220: 78f9 e3be 02c1 0b40 af85 8bbf 6661 04bf
00000230: cfbc 4940 fdc9 a9bf cd6e 8540 18df 9abe
00000240: 8f35 edbe caa3 31bf 5f86 4dbe 14de 20bf
00000250: a802 1b40 0db4 8c40 e4b8 2d3f ea57 f43f
00000260: 0aae 403f 9a60 fc3f e301 393f a5f2 eebd
00000270: f79c c3be ac31 a73f 31d5 9ebf 8f3c 6140
00000280: 54cb e73e 1eb0 d1be 8084 60be 7d0f 233f
00000290: 103e ea3f 94e7 53bd f366 6a40 1848 473f
000002a0: fb9f 4b3f 87cb 6940 e1f4 2d3f 9bae 7ebe
000002b0: 61f0 a7be 5e1a bcbf a4f3 4f40 079d 733f
000002c0: 08c5 943f 367c 8c40 e832 373f ad99 783f
000002d0: d3f1 6abf 4929 393f 8c73 cfbe c990 8a40
000002e0: ebf7 0c40 9ece a1bf 677e 9740 8ea7 aebd
000002f0: 088b 03bf dffd 81be 03e5 02be d6ad 7b3f
00000300: 73b7 f43f 4854 2b40 176d ac3f 8489 bf40
00000310: 5993 89bd aa7b 57bd fe22 bcbf d54a bcbf
00000320: b938 8dbf 91fd f33e 9c10 763d 0fff b3be
00000330: 4572 04bf d0ef 8c3f 2ea2 61bf cf78 3c3f
00000340: bc4e d63f beaf 9c40 c71b 8abf 1fbb 4540
00000350: 5287 51be 4925 ec3f 442a 73be 7a98 2840
00000360: 2f2a 1040 f54d a5bf ef79 9b3f 373a 2140
00000370: 02a7 bd40 ad6c e53e f7d0 a63f 8154 dabd
00000380: 8f98 a7be 8e49 e93f 7709 8940 a559 5340
00000390: 66df d1be e1cf 53be 29a2 2dbe 115e 55bf
000003a0: 1d22 a23f e4fd 74be cdea 8f3f 5483 14bf
000003b0: 8a90 7f3f e062 35bf c6b8 0abf dcf9 953f
000003c0: 48e1 07bf c169 90be 971b 0cbf 8610 89bd
000003d0: cbef 903e 842d 38bd 0238 0840 1a06 19bd
000003e0: add0 b73e 9a8e 3a3f 0e5f 4140 43e4 0040
000003f0: 2bb5 fa3f 4428 b7bf 0c49 62bf abcc ff3f
-0.010607432 -1.065769 -1.0888476 0.6941696 1.6383085 -1.8080584 -0.8264773 -1.5213805
0.6397522 -0.4612229 -0.58021396 -0.45734406 -0.25258052 -0.8751411 -0.37156776 -0.12217173
-1.0468627 -0.48752126 0.6390378 -0.2715762 0.06755104 5.4112883 0.68506753 -0.29767624
-0.22416858 5.400967 -0.19746019 2.0229487 1.4953132 0.92484397 -0.11031686 -0.73219514
3.0942333 -0.4271573 -1.4667895 1.7931217 1.194589 -0.44281614 -0.6818642 -1.7907416
1.3838956 -0.67491716 -0.7685811 -1.4395297 -0.35094818 1.1659008 3.1537552 1.5872799
0.18353267 1.0443162 -0.07848867 -1.4684796 0.64988357 -0.39496982 -0.24470226 1.1689038
1.2284098 4.322327 1.0307629 2.8256383 3.546456 1.9319161 0.684616 4.0466323
1.1902691 -1.2436086 1.4131161 1.793535 -0.9402394 1.367509 0.5249598 -0.2789374
-0.18863581 2.025706 -0.682661 -1.3668584 0.21131891 -0.71989524 0.41552788 -1.5322481
2.9818091 -1.1185576 -0.22250706 -0.7650072 0.3857794 -0.27697328 1.164335 1.3969269
-0.18722099 -1.2076045 3.289076 0.8369869 0.9748793 2.2989702 2.5184708 1.9894363
-0.03657248 -1.6585783 0.7230111 0.4700896 0.41350168 -1.4564109 3.9084613 -0.5936126
3.7810538 -2.2492962 1.404057 -1.7496947 0.48461938 3.0417385 -0.9521354 0.38044587
1.3273295 0.2480565 -1.4570801 -0.3979993 -0.34490243 -0.2659554 1.4797626 -1.1471878
-0.18551971 0.056653347 -0.18859994 2.560021 -1.239293 -0.31192884 -1.1967083 0.08055924
4.8666873 -0.72677714 3.804765 -0.122415595 -0.36986008 3.1874473 1.5582614 1.9866805
-0.44526267 2.1836553 -1.0900172 -0.5171112 3.152149 -1.3264767 4.1697755 -0.30248332
-0.46329924 -0.6939055 -0.2007079 -0.62838864 2.4220371 4.396979 0.67860246 1.9089329
0.7526556 1.971698 0.72268504 -0.116673745 -0.38205692 1.3062034 -1.2408811 3.5193212
0.45272315 -0.4095468 -0.21925545 0.6369551 1.830019 -0.051734522 3.6625335 0.7784438
0.79540986 3.6530473 0.6795178 -0.24871294 -0.32800582 -1.4695547 3.2492456 0.9516148
1.1622629 4.3901625 0.7156205 0.9710949 -0.91775244 0.7232862 -0.40517843 4.330174
2.2026317 -1.264118 4.73418 -0.08528052 -0.5138402 -0.25389 -0.12782674 0.9831213
1.9118484 2.6770191 1.3470792 5.9855366 -0.067175575 -0.05260817 -1.4698179 -1.4710337
-1.1032935 0.47654393 0.060074434 -0.35155532 -0.5173686 1.1010685 -0.8813809 0.7362184
1.6742778 4.896453 -1.0789727 3.089546 -0.20461777 1.8448879 -0.23746592 2.6343064
2.2525747 -1.2914416 1.2146586 2.5191782 5.9266367 0.44809476 1.3032521 -0.10660649
-0.3273358 1.8225572 4.2824054 3.3023465 -0.40990752 -0.20684768 -0.1695639 -0.8334666
1.266666 -0.23924977 1.124353 -0.5801289 0.99829924 -0.70853996 -0.5418819 1.1716876
-0.53078127 -0.28205684 -0.547296 -0.06692605 0.28307948 -0.044965282 2.1284184 -0.037359335
0.35901394 0.7287384 3.0214267 2.013932 1.9586538 -1.4309163 -0.8839271 1.9984335

l1.bias f4 [8]
00000000: 879f 703f 8b9e d63f 8fe1 cb3f 6ea5 103f
00000010: 7d05 523e 68a9 883f f981 3e3f 8168 7d3f
0.9399342 1.6767133 1.592821 0.56502426 0.20509906 1.0676699 0.7441707 0.98987585

l2.weight f4 [8, 8]
00000000: cdc4 4a3e 757e 3940 251e 77bf c852 4840
00000010: 2d67 b1bf 06ff 003b 1805 a23f c9d8 9bbf
00000020: e971 b1bf 9df5 bb3f 028c 0240 e8fe e7be
00000030: 6f56 95c0 0c5b 66c0 312d 27c0 ff36 6840
00000040: bc48 82bf e9e5 c5be 883f 1040 9fce a1c0
00000050: 72bd 8abf 29e8 6e40 5111 2540 93aa 85c0
00000060: 1ba7 acbd bf71 b2be 3263 aabe be84 393e
00000070: 82cd c3bd d1a9 3c3c 3ae4 3fbe 5951 c2bd
00000080: a8d9 063f 5cdd 32c0 022a 0640 d14d bcbd
00000090: c3d1 2640 24f4 47c0 d231 f93f a56d 0bbe
000000a0: c6f8 ed3f 952f 09c0 cb92 02c0 1342 1140
000000b0: d43a dcbd 6d53 3940 2343 fc3f cfe8 0040
000000c0: c807 84c0 dbd7 883f 5158 46be a258 a5bd
000000d0: 3497 d33f 4e59 a3bf ce14 e23f 4d41 47bd
000000e0: ab96 9240 81c6 8ebf 7a18 93bf 18f4 d83f
000000f0: c991 3140 7913 b1bd 5e05 1fc0 8fc0 453e
0.19801636 2.8983433 -0.9653037 3.1300526 -1.3859612 0.0019683256 1.2657804 -1.2175533
-1.3862888 1.468433 2.0397954 -0.45311666 -4.666801 -3.599307 -2.6121333 3.6283567
-1.0178447 -0.3865197 2.2538776 -5.0564723 -1.0839064 3.73292 2.579182 -4.177072
-0.0843031 -0.34852406 -0.33278805 0.18117043 -0.09560682 0.011515097 -0.18739405 -0.09488172
0.5267587 -2.7947607 2.096314 -0.0919453 2.6065528 -3.1242762 1.9468329 -0.13616045
1.8591545 -2.1435292 -2.0402095 2.2696579 -0.10753408 2.895717 1.9707989 2.0142095
-4.12595 1.0690874 -0.19369628 -0.08073546 1.6530519 -1.2761629 1.7662599 -0.04864626
4.580892 -1.1154329 -1.1491845 1.6949492 2.774523 -0.08646292 -2.4847026 0.19311737

l2.bias f4 [8]
00000000: 5f26 edbd c34b 963e 49ca a33f 33d3 92be
00000010: 16b1 3bbf 01f2 7bbe efd9 5fbf a4c5 eebe
-0.11579584 0.29354677 1.2796108 -0.28676757 -0.73317087 -0.24604036 -0.87441915 -0.46635163

l3.weight f4 [305, 8]
00000000: 96a5 c2be ec04 64bf a467 d8c0 c500 053e
00000010: 1be8 e0c0 ae19 8ec0 2541 b2be f6bd b8c0
00000020: fe01 2fbf e577 923e 7b40 f0c0 9024 64bc
00000030: d283 20c1 fc5e 7cc0 7b97 dabf 0d59 1fc1
00000040: 5ec5 69c0 eeb0 3d3f b508 eec0 fd6b 6d3e
00000050: b59c 45c1 0a70 f6bd 3637 5bc0 a42b 1dc1
00000060: 40e6 23c1 ff2b 99c0 b0d9 6f3f 02d4 03be
00000070: e699 34c0 39b9 e4be 572e 22c1 f1ad 58bf
00000080: b862 fbbf 0605 dec0 aefc bec0 4bd5 c6bc
00000090: 4610 fe3e 41b1 04c0 37ae 25bf e613 b1bf
000000a0: 8f45 02c1 af32 f6c0 abde f23e c72f 8f3e
000000b0: b896 203e aeda 95bf 2fe9 f9c0 8a8c 09c0
000000c0: 0f4d 8dbe 7d09 4cbe 23fc f7c0 f3de bebd
000000d0: c399 3ac1 0eb5 20c1 d147 45bf 03a0 f2c0
000000e0: 39c6 02c0 38ab 76c0 2034 e83f 6269 5a3e
000000f0: 935b fac0 42bd 8fc0 1153 12c0 dfa3 4dc1
00000100: 035f 47c0 c5a2 63bf 876a 49be 2897 59be
00000110: c6d4 0dc1 795f 963e d1ee 50bf 5354 25c1
00000120: 0842 61c0 d3d7 bfc0 aa24 c4be b699 303e
00000130: 39c2 1cc0 6b48 293e 3c58 b3be b7fd d9c0
00000140: 56cb c7bf e981 c8c0 4a18 3dc0 a032 3f3e
00000150: 9fe4 913e 6e40 f2bf c222 d43c 0b39 c1c0
00000160: fea6 b6bf b2ed 36c0 e568 cbc0 24e3 e4bd
00000170: 8ab8 0dc1 4baf 23c0 c568 9e3e ee86 2b3f
00000180: 81c5 5a3f c2a5 3fbf fdd1 d1c0 16e8 833d
00000190: e413 36c1 6a1b 57c1 7279 a9c0 b261 7ec0
000001a0: 9383 67bf 59f5 65c0 5d7f dac0 b90e e03c
000001b0: ea18 0240 049c ffc0 d9f8 98c0 98cb 8cc0
000001c0: 10ac 82c0 3b13 31c0 05c9 e5c0 581c 283d
000001d0: cad0 853e dd65 09c0 7a1f 4cc1 d690 543f
000001e0: b0a8 69c0 f5fc b1c0 312e 2fc0 ed08 8bbe
000001f0: 9ca8 e2c0 8a65 81bf a53b b83f 4759 17bf
00000200: e684 d13d 7bb1 97c0 2efa 8dc0 4a3e 5dbe
00000210: 02e7 be3e 9486 8bc0 0c0a 73c0 fab7 8dbf
00000220: 2602 88be 0b3f b3c0 963b bf3e 5203 a9bb
00000230: 122e 8cbf 7d77 5cc0 306f ecc0 f14f e5c0
00000240: 90ea 1ec1 e01b d3bf f6e0 b3c0 043e 363e
00000250: 7e6e ce3f 44ec 4bc0 ef0b 02c1 7ca8 d4bc
00000260: f2ae 80bf 841a 24c0 aa69 33c0 eeb9 1cbe
00000270: 92fb a6bf 6273 d13d 8b95 5dc1 084b b3bf
00000280: 5c55 47c0 93ac f5c0 2505 20be addb 98be
00000290: b45e ecbb a5cc fec0 4f2a 403f 2e23 01c1
000002a0: 64c8 01c0 a097 1dbf b884 dcc0 2807 7abd
000002b0: 506b 41c1 9dc0 2cc0 f583 9c3f 371e bdc0
000002c0: d767 41c0 0977 d1c0 a64f 3dbf 3230 58be
000002d0: 19b5 103e 0706 debe df77 fbbf 9ee5 94c0
000002e0: c82f fabf 74c5 593f dccf d0c0 f8f4 28be
000002f0: 6d43 23c0 e528 08c1 6424 60c1 1773 c5bf
00000300: b8b3 07c0 5b5e dac0 59a9 c0c0 3571 3ebe
00000310: 8e99 1fc0 d83e 1b3f ba90 a0bf 9c3a 9bc0
00000320: 69c6 82bf f5a0 d8c0 7d39 24c0 4ef4 283e
00000330: e526 af3f daf3 1ac1 828c c2bf 919c b3c0
00000340: 8a5e fc3e 9bdb debf 0dfb adc0 b274 7bbe
00000350: f7ec d5bf 69ea 23c1 43b9 2dc0 620d 3fc1
00000360: 3247 81c0 451d f8c0 b89d 3b3f 60fb 09bd
00000370: b8ef 0cc0 56a7 c0be ac40 adbf 90ea d7c0
00000380: 92c2 1fc0 3199 17c0 1e72 6c3f 9b8e b33d
00000390: 6daa 2ac1 198c f8bf f63d fa3e 5e2a 0fc1
000003a0: bc40 33c1 a919 ba3f ab75 4dc0 3738 66be
000003b0: fe84 aac0 cc19 b7bf ccb1 e3c0 1d2f d8c0
000003c0: 9731 96bf 3387 d6c0 018c 8fbd ef89 2d3e
000003d0: a6ec bac0 5d19 c13f 534a 36c1 838f 33c0
000003e0: 4242 0ac1 79d6 1f3f ec17 d8c0 a0da 273e
000003f0: ce0a 19c1 45af 32bf 1fb7 93bf 0fd0 c2bf
-0.38016957 -0.8907001 -6.7626514 0.12988575 -7.028333 -4.4406347 -0.34815326 -5.7731886
-0.68362415 0.28607097 -7.507871 -0.013924733 -10.032183 -3.9432974 -1.7077478 -9.959241
-3.6526713 0.740981 -7.438563 0.23185726 -12.350759 -0.120330885 -3.4252448 -9.823154
-10.243713 -4.7866206 0.9369154 -0.12873843 -2.8218932 -0.44672564 -10.136313 -0.84640414
-1.9639502 -6.938113 -5.9683447 -0.024271628 0.4962179 -2.0733187 -0.64718956 -1.3834198
-8.141982 -7.693687 0.47435507 0.2796614 0.15682495 -1.1707361 -7.809715 -2.1492028
-0.27597854 -0.19925494 -7.7495284 -0.09319868 -11.6625395 -10.044203 -0.7706271 -7.5820327
-2.0433486 -3.8542004 1.8140907 0.21329263 -7.8236785 -4.4918528 -2.28632 -12.852508
-3.115174 -0.8892024 -0.19669543 -0.21249068 -8.864447 0.29369715 -0.81614405 -10.333087
-3.5196552 -5.9950957 -0.38309222 0.17246136 -2.4493544 0.16531532 -0.35028255 -6.812221
-1.5608928 -6.265858 -2.9546075 0.18671656 0.28494737 -1.8925912 0.02589548 -6.0382133
-1.4269712 -2.8582578 -6.3565545 -0.11176136 -8.8575535 -2.557574 0.30939308 0.6700276
0.8545762 -0.748623 -6.5568833 0.06440751 -11.379856 -13.444193 -5.296075 -3.9747128
-0.9043514 -3.5930998 -6.8280473 0.02735077 2.0327706 -7.987795 -4.780377 -4.3998528
-4.0835037 -2.7667987 -7.1807885 0.041042656 0.26135856 -2.1468422 -12.757685 0.830335
-3.6509209 -5.5621285 -2.7371943 -0.27155247 -7.083082 -1.0109112 1.4393202 -0.591206
0.102304265 -4.740415 -4.4367895 -0.21605793 0.3728562 -4.360178 -3.7974882 -1.107177
-0.2656414 -5.6014457 0.37350148 -0.0051578665 -1.095156 -3.444793 -7.3885727 -7.1660085
-9.932266 -1.6492882 -5.621211 0.17797095 1.612747 -3.1862955 -8.127913 -0.025959246
-1.0053389 -2.5641184 -2.8033242 -0.15305302 -1.3045523 0.10227086 -13.8490095 -1.4007273
-3.114585 -7.677316 -0.15626962 -0.298551 -0.007213438 -7.962481 0.7506456 -8.071089
-2.0278559 -0.61559486 -6.891201 -0.06104198 -12.088699 -2.6992562 1.222777 -5.9099383
-3.021963 -6.5457807 -0.7394966 -0.21112135 0.14131583 -0.43363973 -1.9645957 -4.6530294
-1.9545832 0.85066915 -6.5253735 -0.16499698 -2.5509903 -8.509984 -14.008884 -1.5425748
-2.1203442 -6.824018 -6.0206723 -0.18597873 -2.4937472 0.60642767 -1.2544167 -4.8509045
-1.02168 -6.769648 -2.5660088 0.16499445 1.3683745 -9.684534 -1.519913 -5.612862
0.49290878 -1.7410768 -5.436896 -0.24556234 -1.6712941 -10.244729 -2.7144325 -11.940767
-4.039941 -7.753573 0.73287535 -0.033686996 -2.2021313 -0.37627667 -1.3535361 -6.747383
-2.4962506 -2.368725 0.9236163 0.08767434 -10.666608 -1.9417754 0.48875397 -8.947844
-11.203304 1.4539081 -3.210307 -0.22482382 -5.3287344 -1.4304748 -7.1154537 -6.755751
-1.1733884 -6.704004 -0.070091255 0.16947149 -5.8413877 1.5085865 -11.393146 -2.8056343
-8.641176 0.62436634 -6.75292 0.16391993 -9.565138 -0.6979869 -1.1540259 -1.5219744

l3.bias f4 [305]
00000000: abad 23c1 763e e1c0 de1e 51c0 0b95 7cc0
00000010: bf37 09c1 592e 9bc0 8178 c2c0 4b47 81bf
00000020: 9f09 bdc0 90e1 a9c0 aff9 d8c0 5c64 1cc1
00000030: afde 93c0 6e47 01c1 f0a8 5dc0 a910 d0c0
00000040: d046 0fc1 de7c aac0 2646 98c0 de71 9bc0
00000050: c405 6cc0 ac3b f5c0 70e2 c6c0 71cc 83c0
00000060: 6c94 03c1 4749 b1c0 2036 cbc0 f696 59c0
00000070: 58b4 d2c0 a5f2 35c0 f245 a2c0 180b e7c0
00000080: fb84 18c1 b20d ebc0 a84b b5c0 04b3 c8c0
00000090: c62c a7c0 be0a 82c0 de45 9fc0 5b5d 69c0
000000a0: 1a03 94c0 85c6 52c0 d022 b1c0 487b eebf
000000b0: 708f 82c0 ccc7 afc0 7fd7 00c1 2d25 d4c0
000000c0: 4a76 73c0 da66 eec0 6f79 f2c0 31e0 0dc1
000000d0: 4091 dac0 adb1 a3c0 0e84 55c0 00ae 16bf
000000e0: 37e1 fbc0 df72 bac0 fbd6 97c0 abdd 8ec0
000000f0: 3ebf 2dbe 067f abc0 4813 cfc0 d782 bfc0
00000100: 09c4 f0c0 828c c1c0 4b2a 06c1 71d8 213e
00000110: 77d4 8cc0 7ce0 c6bd 480c 85c0 7920 f4c0
00000120: 19da d6c0 e42d 11c1 3500 aec0 32ff 1abe
00000130: a83f f1be 16bb 8f3d 0bfc 55c0 94da 86c0
00000140: 6d5e b6c0 bbe9 40bd 0c92 b0c0 8ba7 88c0
00000150: 1dac e3c0 7dec 87c0 88c4 cdc0 ce77 3dc0
00000160: a10a bdc0 12c2 6dc0 d710 64c0 bedd 62c0
00000170: 2f28 85bf 2afb 4dc0 53a4 b7c0 f4f7 aac0
00000180: 800e aec0 990e f0c0 4db9 dfc0 6d14 a7c0
00000190: ed06 a7c0 78ea 23c0 8aec 76c0 0139 a3c0
000001a0: 62fa edc0 12c2 20c1 ad54 cec0 745e 55c0
000001b0: 279c 28c0 49c7 8dc0 1ee7 03c0 5e5c 3fc0
000001c0: ece9 73c0 3027 00c1 1c00 a7c0 fe3e 6dc0
000001d0: df69 d5c0 8cb1 e2bf 4e50 88c0 0357 42c0
000001e0: db8c 0dc1 c6d3 07c0 2561 96bc 67ba efc0
000001f0: c6cb 773c 0ec4 47c0 91a0 09c0 4180 dac0
00000200: 6a51 03c1 b8ca f3c0 af04 b5c0 1253 9bc0
00000210: a1a0 dbc0 f89a bec0 79d0 f7bf 7d4a 8dc0
00000220: 14c1 1fc1 682b 7dc0 f969 ccc0 696f bec0
00000230: ef2e 94c0 0b7d a1c0 42d7 cf3d 6a51 a53e
00000240: f736 03c0 7dff d4c0 162a 95c0 5cba 36c0
00000250: 1aa7 44c0 6390 6ec0 0efe dfc0 72b3 2ec0
00000260: d813 41c0 0746 bdc0 9338 b3c0 aa08 fbc0
00000270: 05d6 02c1 2554 c4c0 3550 85c0 d174 d0c0
00000280: fa47 70c0 f427 bfc0 a252 d7c0 2ac3 f9c0
00000290: 83d4 84c0 5b89 0fc1 9152 b7c0 2d34 01c0
000002a0: 9b26 a4c0 403e bec0 3287 0ac1 b4a0 92c0
000002b0: 19d2 55c0 a6fb 47c0 80f0 15c0 97ed f1c0
000002c0: 779c fac0 f395 cac0 8a2f 0bc1 3094 4bc0
000002d0: ddc2 f0c0 7995 7dc0 e87c 7dc0 48af f2c0
000002e0: ccb1 04c1 71da 0cc1 e032 bec0 e890 1dc0
000002f0: 44f2 98c0 43b5 85c0 0ba8 ebc0 d07d 58c0
00000300: 5923 95c0 3ebe d7c0 9f19 f3c0 7ed8 ccc0
00000310: 141a e0c0 820e ebc0 d457 3fc0 29b4 eac0
00000320: d49a 09c1 f8b7 f9c0 df62 ccc0 7ea6 e1c0
00000330: 63e6 93c0 475e b7c0 d64d 94c0 c4e2 60c0
00000340: d621 b5c0 1f96 13c0 c76e 99c0 0bbf 3ac0
00000350: 7c8c a1c0 5a22 5dc0 a88d 6cc0 3f2d d6c0
00000360: 3568 fec0 9435 a6c0 bf2a 68c0 7e18 d4c0
00000370: daa1 b5c0 bb4d b5c0 f328 3fc0 3a7e 8bc0
00000380: f4df 89c0 caaa e6c0 1f07 04c1 5f1d a7c0
00000390: 928f 98c0 f105 4ec0 693c 8bc0 dc37 c6c0
000003a0: 8c11 81c0 a4b9 ffc0 195d e8c0 4802 02c1
000003b0: 52bc 8ec0 592d a5c0 2f89 e1bf 89ca cbc0
000003c0: ba43 a4c0 b5b4 acc0 aad5 e0c0 aa69 10c1
000003d0: c561 dec0 b3e8 a4c0 4537 5cc0 e8cf 60c0
000003e0: 4f8d babf 53d8 aec0 b8da 60c0 36f0 77c0
000003f0: 6342 aac0 d25d 99c0 0cd3 ddc0 3c7d 8bc0
-10.229899 -7.0388746 -3.267509 -3.9465969 -8.57611 -4.8494077 -6.07721 -1.0099882
-5.9074244 -5.3087845 -6.780479 -9.774502 -4.620933 -8.079939 -3.4634361 -6.5020337
-8.954788 -5.3277426 -4.758563 -4.85765 -3.687852 -7.663534 -6.2151413 -4.118706
-8.223736 -5.540195 -6.350357 -3.399839 -6.5845146 -2.8429348 -5.0710382 -7.220104
-9.532466 -7.345422 -5.6654854 -6.2718525 -5.2242155 -4.0638113 -4.9772787 -3.646323
-4.6253786 -3.2933667 -5.5354996 -1.8631372 -4.0800095 -5.4931393 -8.052611 -6.629538
-3.8040948 -7.450055 -7.5773234 -8.867234 -6.8302307 -5.115439 -3.336185 -0.5885925
-7.871242 -5.8265224 -4.7449927 -4.464559 -0.16967484 -5.359256 -6.4711037 -5.9847217
-7.52393 -6.048402 -8.385325 0.15805222 -4.4009356 -0.09710786 -4.157749 -7.628964
-6.7141232 -9.073704 -5.4375253 -0.15136412 -0.47118878 0.07018106 -3.3435085 -4.214182
-5.6990266 -0.047097903 -5.517828 -4.270452 -7.11476 -4.247618 -6.4302406 -2.9604373
-5.9075475 -3.71497 -3.5635278 -3.544784 -1.0402888 -3.2184548 -5.738809 -5.3427677
-5.43927 -7.501782 -6.9913697 -5.2212434 -5.2195954 -2.5611858 -3.8581872 -5.1007085
-7.4368143 -10.04738 -6.4478364 -3.33389 -2.6345308 -4.430577 -2.0609813 -2.9900126
-3.8111525 -8.009567 -5.2187634 -3.7069697 -6.6691737 -1.7710433 -4.259803 -3.0365608
-8.846889 -2.1223006 -0.018356869 -7.491504 0.015124267 -3.1213412 -2.1504252 -6.828156
-8.2073765 -7.618496 -5.6568217 -4.8538904 -6.863358 -5.956417 -1.9360496 -4.415343
-9.984638 -3.9557743 -6.387936 -5.9511 -4.630729 -5.046514 0.10148479 0.32288677
-2.0502298 -6.6561875 -4.6613874 -2.8551245 -3.072699 -3.7275627 -6.9997625 -2.7297025
-3.0168362 -5.9147983 -5.600656 -7.8448076 -8.177251 -6.1352715 -4.166041 -6.51426
-3.754393 -5.973627 -6.728837 -7.8050737 -4.1509414 -8.971034 -5.728829 -2.0188096
-5.1297126 -5.945099 -8.658007 -4.582117 -3.3409483 -3.1247344 -2.342804 -7.5602527
-7.8315997 -6.3308043 -8.699106 -3.1809196 -7.523787 -3.962248 -3.9607487 -7.5838966
-8.293407 -8.80333 -5.9437103 -2.4619694 -4.7795734 -4.1783767 -7.364263 -3.382679
-4.660565 -6.741973 -7.5968776 -6.4014273 -7.0031834 -7.345521 -2.9897356 -7.334492
-8.6003 -7.803707 -6.387069 -7.0515738 -4.6218734 -5.7302585 -4.6345015 -3.5138407
-5.6603804 -2.3060377 -4.7947726 -2.9179103 -5.048399 -3.4552217 -3.696146 -6.693023
-7.9502206 -5.1940403 -3.627609 -6.62799 -5.6760073 -5.6657386 -2.9868743 -4.3591585
-4.308588 -7.2083483 -8.251739 -5.2223353 -4.7675257 -3.2191126 -4.3511243 -6.194319
-4.033392 -7.991411 -7.2613645 -8.125557 -4.4604883 -5.1617856 -1.761999 -6.3684735
-5.1332674 -5.397059 -7.026082 -9.025797 -6.9494348 -5.1534057 -3.4408734 -3.5126896
-1.4574374 -5.463907 -3.5133495 -3.8740363 -5.320604 -4.7927027 -6.9320126 -4.3590374
